Project_Cow/Preprocessing/uwunet_noise_predictor_100_epochs_linear_schedule.pt (torch, 732266 bytes, 35 tensors)

conv1.conv.0.weight f4 [16, 1, 3, 3]
00000000: 4c36 1c3e 8e2b 8bbd 8677 653b b9d1 323e
00000010: 0643 213f bc60 d93c 8df7 cdbd dd15 223e
00000020: 6ec4 a7bd e4ff 303e cdf5 8c3e 9c6c ef3d
00000030: 8fb9 57be 84ef 743e a00c e53d b336 86be
00000040: c9a1 abbe 1810 0bbe f794 693e 842a 883e
00000050: ba17 bdbd e5c5 b43e 5985 bdbb 8d6b 533e
00000060: ce7d 32bb ed14 8abd c520 eb3d 0c35 a43d
00000070: 8f65 ac3e 22cd 82bc 3b31 a1be 689b 3cbe
00000080: 24fc 31be 3e4b 94bb 036c 1ebe 54ae 06be
00000090: c877 c5bd 55ec 873e 5179 973b 0741 6fbe
000000a0: 57ef dd3e 83ba 03bf 9b02 e83d 1da5 04bd
000000b0: d01a 703e 00b0 483e 9b96 a63e d78b 5a3e
000000c0: c18f 60be 06e3 e6bd 1ad9 813e 4fd6 783e
000000d0: 0430 07bd 2c44 8abe 59af 8dbc b75b 5cbe
000000e0: 4a52 c2be ae27 373e c758 9a3e f271 f23d
000000f0: 4d28 74bd 537a 913e 3e10 14be 3d89 14be
00000100: 58e2 d53e 03f0 e33d 1757 cbbd 4649 b0bd
00000110: 6ce0 24be 2325 3cbe 47fa 91bb 87c1 2cbe
00000120: b3b1 e9bc a994 6d3d 4fb0 10bd 304e 93be
00000130: 8bd6 a03e 5477 b03e 95f9 99be 6775 97be
00000140: 4ab8 70bd ca09 34bd e8ff 3c3e 949d a7bd
00000150: 6966 52be c5db 79bd 3796 a9be 4ada 1b3e
00000160: 3cbd 81bd 9cd3 a23d aeab d23c 0367 9abd
00000170: 376a dd3d ba4d e73e 25ba 7fbd f9be 9fbe
00000180: 60ce 823e 195f 883d 64a8 7dbe b8e5 163d
00000190: 0553 16b8 4f35 853c 1ded 953e 5479 d53c
000001a0: 3672 dabe 3e84 e23b 2e17 96be b352 8ebe
000001b0: d34a 123e a7ee 913d befe 9fbc 0f2a 6ebe
000001c0: 9c16 5c3e a8df 043b 923a 7dbe 3d0f 8f3e
000001d0: 6903 193e 3984 7b3d bca6 3f3e 4e20 0b3e
000001e0: 5a31 553e fab7 633c fb58 903e 4f7d af3e
000001f0: 8791 a33e 1041 343e 2483 69be fece 17be
00000200: 3346 29bd 51e7 843e 2875 08bf 121a 83be
00000210: ea29 86be 5de8 93bd a371 1d3e 52ec d7bd
00000220: 5b59 d4be 8f85 a33e 6c03 4a3e f6f6 253f
00000230: 901f 31be 9a06 46be 7e7c 253e e5dc b7bc
0.15255088 -0.06795417 0.0035013868 0.17462815 0.62992895 0.026535384 -0.10056982 0.15828653
-0.08191763 0.17285115 0.2753128 0.116906375 -0.21066879 0.23919493 0.11184049 -0.26213607
-0.3352187 -0.13580358 0.22810732 0.26594937 -0.09233041 0.35307232 -0.0057837185 0.20646496
-0.002723563 -0.067422725 0.1148086 0.080179304 0.33671233 -0.015966956 -0.31482872 -0.18418658
-0.1738134 -0.004525571 -0.1547089 -0.13152438 -0.09641987 0.26547495 0.0046226163 -0.2336465
0.43346664 -0.5145647 0.11328622 -0.032384027 0.23447728 0.19598389 0.32536778 0.21342407
-0.21929838 -0.1127377 0.25360948 0.24300502 -0.033004776 -0.27005136 -0.017295526 -0.21519361
-0.37953407 0.1788623 0.30145857 0.118381396 -0.059608746 0.28413638 -0.14459321 -0.14505477
0.4177425 0.11129763 -0.099287204 -0.08607726 -0.16101235 -0.18373542 -0.004454884 -0.168707
-0.028527116 0.0580031 -0.03532439 -0.2877059 0.31413683 0.3446604 -0.30073228 -0.29581758
-0.0587695 -0.043954648 0.18456995 -0.081843525 -0.20546879 -0.061000604 -0.33122417 0.1521999
-0.06334922 0.079505175 0.025716629 -0.07539179 0.108112745 0.45176488 -0.06243338 -0.31200388
0.25548077 0.066587634 -0.24771267 0.03684017 -3.5840105e-05 0.016260771 0.29282466 0.02605883
-0.4266526 0.006912737 -0.2931456 -0.2779747 0.14286356 0.071255974 -0.01953065 -0.23258232
0.21493 0.002027491 -0.24729374 0.27941313 0.14942707 0.061405394 0.18715948 0.13586542
0.20819607 0.013898844 0.28192887 0.3427529 0.31946966 0.17602944 -0.22803932 -0.14825055
-0.041326713 0.2595773 -0.53303766 -0.25605828 -0.26203853 -0.07222054 0.1537538 -0.105431214
-0.41474423 0.31937835 0.19727868 0.6482996 -0.17297196 -0.19338456 0.16160771 -0.022444198

conv1.conv.0.bias f4 [16]
00000000: 9acc 803f 5343 4ebe 66d2 28be 3593 65be
00000010: aa04 323f f2aa a3be 94ed 9e3e 8c68 eb3e
00000020: ab3c 86be 83bd 71be 46ac b53e 3049 e4be
00000030: 4b12 e4bd f73e bd3e ae4a af3e efb7 703f
1.006244 -0.2014287 -0.1648651 -0.22419436 0.69538367 -0.31966358 0.31040633 0.459782
-0.2621816 -0.23607449 0.35482997 -0.44587088 -0.111363016 0.369621 0.34236664 0.9403066

conv1.conv.2.weight f4 [16, 16, 3, 3]
00000000: d0b1 6d3d 0ce4 093d 89ad c73d 5ec0 143e
00000010: d38f f83d 3769 bd3c 6cc1 e03d f9c5 6a3e
00000020: 0f2b ba3c d7fe 4a3d 9648 cf3c c3d1 ddbb
00000030: 18ba 82bd 3c50 893d eefc c23c 86b1 d1bc
00000040: a03a 8bbd ab36 df3d c649 23bd 2a5b e03b
00000050: 8fc2 4abd e8ba b53c 5e94 c4bc b8a6 473c
00000060: 18e1 e0bc 0850 59bc 049e 37bd 74d7 483b
00000070: 4050 e2bd 3986 7abd 7d5a 9ebd 89b8 b9bd
00000080: 414c d83c d7a3 b1bc a033 9bbd 5434 043d
00000090: 561e c73c 0801 24bd 23f1 7f3b 0132 bc3d
000000a0: 3064 543d 5a2a 1f3d 8055 54bd a22b d13d
000000b0: 919b aabc ba39 8dbd 1cc2 893d 982c 41bd
000000c0: 5b80 933c 8e04 9ebb 8e14 86bc 8e5b 5cbd
000000d0: 6fde 283b 2258 253d 1050 3bbd 3b65 9f3b
000000e0: f54d 083c 185c d23d 38b0 523d 4d12 e5bc
000000f0: 119b 1c3d a8fa 133d e327 653d 0305 1ebc
00000100: 3a09 7bbd 5963 403c f490 25bd 8c62 edbb
00000110: 2890 37bd bc2b 45bd d4b8 1fbd 030d a839
00000120: d5a2 34bd f73a e33c b4a8 58bd 04f5 1b3d
00000130: e547 06be 03df d9bd 2d95 8b3d 4871 deba
00000140: d3df 42bd 0f3d 27bd 2bf4 02bd a59f d53c
00000150: ccfc 9f3d b767 a7bc 6f7c d83c 64a5 5bbd
00000160: caab 93bc 8b6f 6d3c 2497 1ebc 2d2f 5d3c
00000170: 2991 4f3b f5cd 89bd 4aa0 673d 5a4f 7bbd
00000180: a04b 36bd 320f 25bd 86fc 85bc 9372 5abd
00000190: 5543 cbbb a151 55bd b8be 0cbe 79be 9dbd
000001a0: 1302 8fbd 679d f6bd 24a0 49bd d5e9 173d
000001b0: 7e89 273d be99 d43c 31ab b6bd c365 e63c
000001c0: 5003 87bd 94a6 11bd 821b cf3c e623 dbbc
000001d0: 725e 49bd 0361 b4bc ef09 273d dfe1 293b
000001e0: ee51 693b c65a 16bd 0878 16bd d52d 01bd
000001f0: 2c27 26bc 7c8d 0b3c d8c5 643c 1bd7 0fbd
00000200: 9c19 633d 9cbd 413d fbae bc3d ac76 033b
00000210: ed86 b0bd 2b48 54bd 7a5d 803c c634 c13d
00000220: 2e20 5bbb b8e6 fd3c 13c7 933c 3ed4 1c3e
00000230: bb3d 02be ef6f 673d 9cb3 193d a754 963d
00000240: 8aa2 e23c 2de1 fa3d 336a 753d 1606 b8bc
00000250: 7b10 cc3d 5339 433d d4c6 8dbd 6660 3e3d
00000260: b60d 073c 9551 21bd 144d d0bc 0725 64bd
00000270: 5fac c8bb 5e89 16bd d58d 41bd bd4b 76bd
00000280: bb71 a8bd 8018 03bc ab15 183c fbfb ebba
00000290: 45c3 70bc 1cce 06bd 781d 09bd 3798 7c3d
000002a0: 9114 7cbc a076 2f3d 5ff5 3f3d be51 0fbd
000002b0: 4445 773d 7a64 f53c 7c4b 5abd 2b5f afbc
000002c0: 9bd1 0d3c 614f 69bd b824 30bd 3317 8dbc
000002d0: d225 f5bd 3d0d ee3d 1507 cabc a7b3 bf3d
000002e0: 1932 193c 75fb 183d 02d2 f1bd c516 eb3d
000002f0: bdfd 7ebb fae0 39bd bed3 323c 8bb7 033a
00000300: 8f19 c93c bf4d f3bc d49c 58bc ffcb e43c
00000310: a398 92ba e4ca 4d3d 6f05 e53b e9f0 983d
00000320: 9b63 81bb 5ecb b8bd f326 643c 7af0 e0bc
00000330: ae89 d5b9 a1fa 783b 878e 60bc 464a 4ebd
00000340: b041 65bc 9702 88bb 395f 33bd 15e3 133e
00000350: 795c db3c cd2e b53c 9e4b b3bd c79b 9b39
00000360: d939 28bd 2d2d 27bd db46 8fbd ed0f 4dbd
00000370: e3b0 2b3b d7c1 f93b 588f 25bc 6884 24bd
00000380: 7163 053d b7f7 57bd bb73 6abc f62f d7bd
00000390: 4fd6 0dbd 31c7 b0bb da77 c3b9 b71f fb3b
000003a0: 79cd 3b3d 3962 583c 92fe 2bbb ee1b 30bd
000003b0: 651f cfbc 582f 7fbd 6109 bb3c 0897 d83d
000003c0: 11ff 163c cc5d 41bc 9f17 9d3d ea13 91bd
000003d0: 2e58 84bd 4949 b23b 2039 113c 0fd7 d7bd
000003e0: 4fb3 63bd c85f 5abd b42a 5b3c 0076 813b
000003f0: 3453 1abd 407c a7bd 07be 143d 46e6 033d
0.058030903 0.033664748 0.09749896 0.14526507 0.12136807 0.02312146 0.10974392 0.22927083
0.02272561 0.04955944 0.025303166 -0.0067693903 -0.06383151 0.067047566 0.023802247 -0.025597345
-0.06798291 0.10899099 -0.039865278 0.006846805 -0.04950195 0.02218385 -0.023996528 0.012185745
-0.027451083 -0.01326371 -0.04482843 0.0030645998 -0.11050463 -0.06116316 -0.07732103 -0.090684004
0.026403548 -0.02168457 -0.07578206 0.032276466 0.024306457 -0.040040046 0.003905364 0.09189225
0.05185336 0.03885875 -0.05183935 0.102134004 -0.020826133 -0.06895776 0.067264766 -0.04716167
0.01800554 -0.0048223203 -0.016367223 -0.05379825 0.0025767346 0.040367253 -0.04573065 0.0048643625
0.008319368 0.10271472 0.051437587 -0.027962828 0.03823382 0.036127716 0.055946242 -0.00964475
-0.061288096 0.011742436 -0.04042144 -0.0072444137 -0.044815212 -0.04813741 -0.038994625 0.00032053152
-0.0441006 0.027738078 -0.052895263 0.038075462 -0.13113363 -0.10638239 0.068155624 -0.0016971016
-0.047576737 -0.040829714 -0.031971138 0.026077101 0.07811889 -0.020435197 0.026426522 -0.053624526
-0.018026251 0.014491926 -0.009679589 0.013500017 0.0031672216 -0.06728736 0.056549348 -0.061354972
-0.044505715 -0.040297695 -0.016355764 -0.053331923 -0.006203095 -0.0520798 -0.13744628 -0.077023454
-0.069828175 -0.12041741 -0.049224988 0.037088234 0.040902607 0.025952216 -0.08919371 0.028124696
-0.06592429 -0.035559252 0.025281671 -0.026750516 -0.049162336 -0.022018915 0.040780958 0.0025921983
0.0035601812 -0.036707662 -0.036735564 -0.03153785 -0.010141175 0.008517619 0.013963185 -0.03511725
0.055444345 0.047299966 0.092130624 0.0020059748 -0.08619485 -0.051826637 0.015669573 0.09433894
-0.0033435929 0.030993804 0.018039262 0.15315339 -0.12718861 0.056503233 0.037524804 0.07340365
0.027665395 0.1224998 0.059915733 -0.02246384 0.09964081 0.04766209 -0.06922689 0.04647865
0.008243015 -0.039384443 -0.025427379 -0.055699375 -0.006124064 -0.036752097 -0.047254402 -0.060130823
-0.08224817 -0.008001447 0.00928251 -0.0018004173 -0.014694993 -0.032911405 -0.03347537 0.0616686
-0.015385763 0.04283774 0.046864863 -0.034990065 0.06036879 0.029955138 -0.053294644 -0.021407684
0.008655931 -0.056960467 -0.043003768 -0.017222976 -0.11970104 0.11623619 -0.02466158 0.09360438
0.009350323 0.037349183 -0.11807634 0.11478952 -0.0038908564 -0.04538057 0.010914741 0.00050246035
0.02454832 -0.029700158 -0.0132209845 0.027929304 -0.0011184405 0.05024232 0.006989173 0.07467825
-0.0039486415 -0.09023164 0.013925302 -0.027458418 -0.00040729105 0.0037991183 -0.013705856 -0.0503638
-0.013992712 -0.0041506994 -0.043791983 0.14442094 0.026777493 0.022117043 -0.08754657 0.00029679967
-0.041070793 -0.040814567 -0.069959365 -0.050064016 0.0026197962 0.0076219845 -0.010104977 -0.040165335
0.032565538 -0.052726474 -0.014309819 -0.10507195 -0.03462821 -0.005394839 -0.00037282595 0.007663693
0.04585025 0.013207012 -0.0026244265 -0.042995386 -0.025283525 -0.06230101 0.02283162 0.10575682
0.009216086 -0.011802148 0.07670521 -0.070838764 -0.064621314 0.005440865 0.008863717 -0.10539066
-0.055590924 -0.053314 0.01337688 0.0039508343 -0.037677005 -0.08177996 0.036314037 0.032202028

conv1.conv.2.bias f4 [16]
00000000: 14dc 373e 06b9 95bb fc68 793d 8386 8cbc
00000010: 70e4 9f3d 023f 4e3d be56 3b3c d7ae 05bc
00000020: 1e7f 49bd b284 f5bc 0e39 74be 586c ea3d
00000030: 0014 61bd e01f 3a3e 45ed a4bd 3ea9 db3d
0.17955047 -0.0045691757 0.060891137 -0.017153984 0.07807243 0.050353058 0.011434255 -0.008159361
-0.049193494 -0.0299705 -0.2384989 0.11446446 -0.054950714 0.18176222 -0.08053068 0.1072564

embedder1.conv.weight f4 [16, 18, 3, 3]
00000000: c9ac 5ebd eb46 53be 28c0 b2bd 596b 7c3d
00000010: e947 c33d 8df4 1ebd 2471 54bd 2dce 3fbc
00000020: 184f 06be f3f2 6c3d 091b 90bd 5055 2cbc
00000030: 0f5c 23bd c8b4 fc3d 6e1b 85bc 46b1 3fbd
00000040: 6815 0dbe f397 e2bb 5c44 71bc 4a56 073e
00000050: b1e4 0bbd f0c1 523d 77de bbbd 5275 7ebd
00000060: f413 cc3c 6500 cc3c 7ad8 83bd e58e 59bc
00000070: a3df d2bd d17a a8bc da32 133d 926e ddbd
00000080: 708b fabc a27e f5bc f26d a7bd 6789 553d
00000090: c09a 6e3c 2dfa 013e 0468 a73d b2de e5bc
000000a0: 4b68 1c3d 995e e0bd 50f6 9fbc bf0a 1c3c
000000b0: 67b8 b6bd 918e 3d3d 542a 2a3e 56e9 2e3e
000000c0: f248 1f3e 2291 833d bd83 593e b061 27bd
000000d0: fd5e b23c 627d bd3d f312 afbc 4f5f 0f3d
000000e0: 00f5 8a3d 5ef2 4e3d 1ae8 f23d 4426 97bd
000000f0: 2084 cabd b9c8 41bc 4162 933d f9c6 333c
00000100: db8f 00be 6423 3cbd 2918 ffbd 45f3 ae3d
00000110: b475 c5bc 110b fb3c 41e2 643e 3fbf f2bc
00000120: 34d1 0d3d e7bf a23c bf24 97ba 10fc f83b
00000130: edab 4bbd 6783 00bc 1958 bbbb 5bbd 993c
00000140: 9658 b53b 4f38 8bbc 4f12 aabc 34c6 253d
00000150: c21f 3d3a 1ce1 ee3c d759 e8bc e066 0f3c
00000160: a9a9 9d3c 9dd4 fb3c f4e2 86bc 83ed aebd
00000170: 2ee6 d7bd 038d bfbb b0b6 203f d647 053c
00000180: 6a22 f73c 250a bf3d 6f1a c33c b17f 60bd
00000190: cfd8 8fbb 14ba 70bb 673a dabc bef6 e53c
000001a0: 4687 af3d 09e1 6dbd 1844 963d 60ca 9cbc
000001b0: 6697 3cbc 275e 863d 4233 63bd 008e c6bd
000001c0: e144 a33c 6626 31bc ba20 92bd c400 19bd
000001d0: 7588 a1bd 2bf3 6bbd ba1c 78bd ad0b 99bd
000001e0: 25fb bd3c b32e 123e 1457 fc3c bfad bbbc
000001f0: aada 453d e4b5 38bd 44e0 9bbc 9225 923b
00000200: d7df c1bc 956e b2bb ea7d 303d e695 50bd
00000210: 2691 353d 0d92 5d3d 8f26 533d e755 80bd
00000220: aced ca3d 523d 7f3c 4b32 ab3c 5745 52bd
00000230: aba8 c53d 6991 53bd 42d7 c2bd 5380 b7bd
00000240: 2001 9fbd 3711 073e 8988 21be ac97 633e
00000250: bb91 853e b8aa 153e 543f 50bd 0602 183e
00000260: a78e 37be 681b 36bd 819e e93b aa4b fbbc
00000270: b25c 9a3d 6c73 cf3d 66da a53c 5075 e3bc
00000280: a712 85bc 12c4 abbd eb3f 08bd 17e4 873d
00000290: 368a 1e3d 0c49 38bd df4c 06bd 9561 efbb
000002a0: 7df0 0d3d 9315 7fba d520 09bc 197e 8bbd
000002b0: 7ec0 68bd eb6d 0ebd 18ea 33bd 44b3 2b3c
000002c0: cc5e 583c ea2d 97bd a75f 563d a60a c23c
000002d0: 8ff9 16bd 887d e5bc 821a 5f3d f557 15bd
000002e0: 0d51 4bbd 499b 8a3d 24f8 153d b0d6 99bd
000002f0: 1105 9ebc b9f4 4ebd aa67 d8bc 90e2 d03a
00000300: 38ba 833d 8a35 44bd 5d12 24bd d16c 61bd
00000310: 8cb1 813d d07a 81bc ccc2 a2bd 2cb9 12bd
00000320: 4d6f 2fbc 68b3 1d3d f0e8 ac3c 4acb 9dbd
00000330: 7e67 8abc 6728 45bd 5225 12ba fa42 263d
00000340: ebfe 75bd a894 6ebd 6f23 c3bc 099e 85bd
00000350: 345d dcbc dbb4 5c3d 2928 0e3d ac51 87bc
00000360: 135d 953d 92d3 0bbd b4a9 16bb 0caf 123d
00000370: 0d46 893d 0952 953d 082b 4f3d b5dc 543d
00000380: b552 05bd 6602 053d 9d1b 0fbc fde7 99bc
00000390: c004 25bd 205b 9cbd 6e48 d33c b327 6dba
000003a0: c7cc 8f3d 9d73 813d a6c6 68bd 30f0 f0bc
000003b0: 6c67 843d 7409 903d 2b59 fbbc 81d2 d9bb
000003c0: 627a 2c3d 9152 233c 27e9 6f3d 180c 9c3d
000003d0: 93b5 8539 0083 713d eaab 5c3d c532 bcba
000003e0: 0e28 48bd 0020 5c3d cc47 823d 98ea a23b
000003f0: a5bb 033d ca4f 243c 281a 823d e260 f2bc
-0.054364 -0.20632522 -0.08728057 0.061625812 0.095352 -0.03880744 -0.05186571 -0.011706871
-0.1311611 0.057848882 -0.070364065 -0.010518387 -0.039882716 0.12339169 -0.016248431 -0.04679992
-0.13777697 -0.0069150864 -0.014725771 0.1321651 -0.034153644 0.051454484 -0.09173291 -0.062123604
0.024911858 0.024902532 -0.06437774 -0.013278698 -0.102965616 -0.020566376 0.035937168 -0.10812105
-0.030584067 -0.02996761 -0.08175267 0.05213299 0.014563262 0.1269309 0.08174136 -0.028060291
0.0381854 -0.10955543 -0.01952663 0.009524046 -0.08921891 0.04627854 0.1661771 0.17081198
0.1555517 0.06424166 0.2124166 -0.040864646 0.02177381 0.092524305 -0.02137134 0.035003003
0.06785011 0.050524108 0.11860676 -0.073803455 -0.09888482 -0.011827641 0.07196475 0.010972732
-0.12554877 -0.04593219 -0.1245578 0.08542494 -0.024103977 0.030644925 0.22351934 -0.029632209
0.03462334 0.019866897 -0.0011531337 0.0075984076 -0.049724508 -0.007843829 -0.005717289 0.01876705
0.005534242 -0.016994623 -0.020760683 0.040472224 0.000721451 0.029160075 -0.028363151 0.008752555
0.01924594 0.03074103 -0.016465642 -0.085413955 -0.1054195 -0.0058456673 0.6277876 0.008134803
0.030167777 0.09328107 0.023816315 -0.054809276 -0.0043898593 -0.0036732005 -0.026639177 0.028071757
0.08570723 -0.05807594 0.073372066 -0.019139469 -0.011510706 0.06560927 -0.055468805 -0.09695053
0.019930305 -0.010812378 -0.07135148 -0.037354246 -0.07887355 -0.05760495 -0.06057427 -0.0747293
0.023191044 0.14275627 0.03080324 -0.022909997 0.048304237 -0.04509534 -0.019027837 0.004460045
-0.023666305 -0.0054453113 0.04308883 -0.050924204 0.044327877 0.054094363 0.051550444 -0.062663846
0.099086136 0.015578585 0.020898005 -0.05133566 0.096513115 -0.051652346 -0.095137134 -0.08960023
-0.077638865 0.1319016 -0.1577474 0.22225827 0.26087746 0.14615905 -0.050841644 0.14844522
-0.17925511 -0.04445973 0.007129491 -0.030675728 0.075372115 0.10129437 0.020245742 -0.0277659
-0.016244246 -0.08387007 -0.033264082 0.066353016 0.038706027 -0.044991538 -0.032788154 -0.007305334
0.034653176 -0.0009730693 -0.008369644 -0.068111606 -0.0568242 -0.034772795 -0.04392442 0.010479752
0.013206195 -0.07381804 0.052337315 0.023686718 -0.03685909 -0.02801396 0.05446864 -0.036460835
-0.049637843 0.067678995 0.0366136 -0.075116515 -0.019289525 -0.050526354 -0.026416618 0.0015936662
0.06432003 -0.04790262 -0.040056575 -0.055035416 0.063326925 -0.015805632 -0.07947311 -0.035821125
-0.0107076885 0.038501173 0.021107167 -0.0770479 -0.016895052 -0.048134234 -0.0005575019 0.040591218
-0.06005756 -0.05824724 -0.023820607 -0.065242834 -0.026899911 0.053883415 0.03470627 -0.016518436
0.07293143 -0.034137316 -0.0022989335 0.03581147 0.06702814 0.072910376 0.050578147 0.051968295
-0.03254958 0.03247299 -0.008734611 -0.018787378 -0.040287733 -0.07634568 0.025791373 -0.0009046748
0.0702148 0.063208796 -0.05683007 -0.029411405 0.06465039 0.07033053 -0.030682167 -0.0066474085
0.0421089 0.009968416 0.05857196 0.07619494 0.0002550302 0.058962822 0.053874888 -0.0014358392
-0.048866324 0.053741455 0.063613504 0.0049718134 0.032161374 0.010028789 0.06352645 -0.029587213

embedder1.conv.bias f4 [16]
00000000: 17f4 2e3e 91a4 96bd 77dc 36bc 736b bbba
00000010: a79f db3c 3a0f c4bc 7df0 60bd 56ab e03d
00000020: 4027 8d3d 8604 913d 9d8e 4abd cb8f 143d
00000030: dfbe b33d 5943 993d e25d 41bb 52ea 323e
0.170853 -0.07355607 -0.011160961 -0.001429899 0.026809527 -0.023933042 -0.054916847 0.1097018
0.06892252 0.07080941 -0.049452413 0.036269944 0.0877664 0.07483549 -0.0029505421 0.17472199

conv2.conv.0.weight f4 [32, 16, 3, 3]
00000000: a821 a33d 7f62 5b3d 96aa 923d 1214 083d
00000010: 2f19 983d d660 b3bc b0be dbbc 8f83 1fbd
00000020: 923a 52bd eac7 913d 405f b43b 4bb1 6bbc
00000030: 4bc3 503c 78d6 953d 263b bfbc 9059 3a3d
00000040: 708e a23d 56c0 013d 1ec2 0cbd 5323 283d
00000050: 8e73 7e3d eed8 24bc 8698 60bd 5eae 7b3b
00000060: 5233 86bd 8e09 61bd bbea 343d 65b1 903c
00000070: e8bf d03b b061 93bc 4060 2dba 2d36 e1bc
00000080: 8536 613d 951d 6a3c 722d 903d dadd 143a
00000090: 1edf 0fbd 20a9 903d a0a9 f13b 4ea5 833d
000000a0: 4027 9b3d cc28 83bd 7659 53bc c897 78bd
000000b0: 502e 053d bbd6 723d 8d0f bd3b 0b22 b73c
000000c0: 1380 033d 1238 183c 6082 29bd d6b8 91bb
000000d0: de7e 33bd 805b 12bd e0f6 2a3c dea7 65bd
000000e0: 8e2b 7b3d 344c 953d ebe9 bf3c db1d 88bb
000000f0: ab64 79bc 6b89 113d 08ef 63bd 9ffc 733c
00000100: ca59 81bd 1682 42bd be38 85bd adf4 2cbd
00000110: a888 693d 6591 1f3d 35b9 4fbd 84df e13c
00000120: d722 fcbc bee9 313c 63e5 863d e64b 87bd
00000130: a24b a9bd b6d5 52bd c804 8a3d 1413 9e3d
00000140: 8a56 a03d 10e6 103d 7a56 873d 2a31 943d
00000150: ae80 753d 7ebe 6dbd c628 16bd 4e28 b1bc
00000160: 73e2 43bd 4f4d 45bd c035 1fbd 1649 de3b
00000170: 0071 41bd 3707 9b3d 3e62 7ebd db6e 2d3d
00000180: 1800 4c3d dbb8 84bc d088 a43d fb28 4dbd
00000190: 8a66 a2bd 204d 36bd 1f89 853d 5098 82bd
000001a0: 4ecb 1fbd 6d33 ec3c b043 81bd 3b3c 5bbd
000001b0: 83b8 8bbd b70f 8abd 1674 013c aeed a2bd
000001c0: 4e6e 723c 03de 37bd a722 86bd 6c67 803d
000001d0: 1b96 fabc f21a a6bd e5d4 4cbd e3ac 83bd
000001e0: 9ac9 63bd 37bd 883c 3b6c a73d 7842 c1bc
000001f0: 8e7c 853d eed0 94bb 2013 8abd 26da bd3c
00000200: 7175 fc3c c4be 4bbc aea7 1ebd 12e0 9c3d
00000210: 463a 953d 14e4 cbbc 8d72 683d aede 5fbd
00000220: 8d6a 70bb bfdc 7dbb 8bb1 66bc f36c 12bd
00000230: 9a24 b03c 96db ddbc c764 8a3d fc9b a4bc
00000240: 916c be3b f68e ce3c 6b08 78bd a5dc 223d
00000250: d2b3 2a3d f96a d03c 516e 773d fde8 853d
00000260: 7ff6 9b3c b82d 17bd 8e09 80bd 0662 1fbd
00000270: 77a3 96bd ba16 9cb9 0b46 d8bc 5eb0 68bd
00000280: a8f7 323d 9bfa 983c 3684 93bd 136a 87bd
00000290: 5344 fc3c 9a79 4fbd 0f46 da3b 2f08 2abc
000002a0: 9bf7 b33c 97fb 87bd 7727 9f3d e330 be3c
000002b0: 856e 9fbd 4032 3f3d ec93 1fbd eb8e 6fbd
000002c0: 2cc2 38bd 18b7 113d 02a3 23bd 559f 1dbd
000002d0: 6f40 163c dab9 ccbc a082 22bd 6a04 403d
000002e0: 93cd 8d3d 04fa 77bd d4c0 8dbd f476 33bd
000002f0: ea5c 443d 66e4 9d3d 2ca1 0c3d c276 673d
00000300: dcd6 213c 0287 2c3c 4e12 59bd a0bf 9ebd
00000310: 741e 423c 124b 87bd 2ad8 993d 1868 a1bd
00000320: 66c8 a9bc 3860 663d fbab 3b3d 461d 75bd
00000330: de34 183d 337c 2a3c 2358 7cbd 4baf 7a3d
00000340: 6fb6 863d 2955 f9bc ab6d b3bc c81a 7d3d
00000350: 7f56 5e3d 1dd0 febc c2d0 f23c 05f2 abbc
00000360: 1c72 7e3d 5b38 19bd 02a3 a1bd a4ea 8e3d
00000370: 5f9c 1e3c f4f4 683d 36bb ac3b 5b16 7f3d
00000380: 6dc5 a43d 3f51 f93c 546d 74bd 7fc7 33bd
00000390: 7786 6b3d f58c 99bd 49ae 4cbc f0df 693d
000003a0: 6f37 8d3d d885 eabc 40cf 0dbc 66f2 bd3c
000003b0: 2343 84bd 17e1 803d 0e1a a2bd 5878 0cbd
000003c0: 8096 9cbc 9373 943d 8bb4 22bd a1b7 53bb
000003d0: f52a 183d a908 8c3d b178 9b3d 2c7e 48bc
000003e0: 0681 e4bb f55e a0bd 2b45 023d 7de1 fdbc
000003f0: 6070 38bd b4ac b53c 1984 3bbd 292e a73d
0.07965404 0.05356073 0.07161443 0.033222266 0.074266784 -0.02189676 -0.026824325 -0.038943823
-0.05132539 0.07118209 0.0055045187 -0.014385532 0.012741874 0.07316297 -0.023343634 0.04549557
0.07937324 0.031677566 -0.034364812 0.041049313 0.06212192 -0.010061486 -0.054832958 0.0038403491
-0.06552757 -0.054940753 0.04416917 0.017662713 0.0063705333 -0.017990917 -0.00066137686 -0.027491653
0.054983635 0.0142892795 0.07039918 0.00056788104 -0.03512489 0.07063508 0.007374957 0.06428014
0.07575846 -0.06404266 -0.012899747 -0.060691625 0.03251487 0.059286814 0.005769676 0.0223551
0.032104563 0.009290712 -0.0413841 -0.004447083 -0.04382216 -0.035731792 0.010434836 -0.056068294
0.061320834 0.07289925 0.02342697 -0.0041539497 -0.015221755 0.035531443 -0.05564788 0.0148917725
-0.06315954 -0.04748734 -0.06504963 -0.04222553 0.05701509 0.03895702 -0.050713737 0.0275724
-0.030778332 0.010858951 0.06586721 -0.06606273 -0.08266379 -0.051473342 0.06739193 0.077184826
0.07829006 0.035375655 0.06608291 0.0723594 0.05993717 -0.058042996 -0.03665998 -0.021625664
-0.04782338 -0.04816943 -0.03886962 0.006783615 -0.047226906 0.075697355 -0.06210541 0.04234205
0.049804777 -0.016201427 0.080339074 -0.05008791 -0.07929714 -0.044507146 0.065202944 -0.063767076
-0.039012246 0.028833115 -0.063117385 -0.053524237 -0.06822302 -0.067412786 0.007901212 -0.0795549
0.0147968065 -0.04488946 -0.06549578 0.06269726 -0.030589154 -0.08110608 -0.05000772 -0.0642946
-0.055612184 0.016691787 0.0817494 -0.023591265 0.065178975 -0.004541508 -0.06741929 0.02317531
0.03081772 -0.012435619 -0.03873413 0.076599255 0.072865054 -0.02488903 0.05674987 -0.054655723
-0.0036684603 -0.0038736311 -0.0140804155 -0.035748433 0.021501828 -0.027082246 0.06757503 -0.02009391
0.005811282 0.025214653 -0.060554903 0.039761204 0.041675396 0.025441634 0.06040794 0.065385796
0.019038437 -0.036908835 -0.062518224 -0.03891184 -0.07355397 -0.0002977157 -0.026400587 -0.05680882
0.043693215 0.018674185 -0.072029516 -0.06612029 0.030794298 -0.050653078 0.0066611837 -0.010377928
0.021968653 -0.06639784 0.07771199 0.02321667 -0.07784752 0.04667878 -0.03895943 -0.058485907
-0.04510705 0.035575002 -0.03995038 -0.03848203 0.009170636 -0.024990965 -0.039675355 0.04687921
0.06923976 -0.060541168 -0.06921545 -0.043814614 0.047940172 0.07709579 0.034333393 0.05650974
0.009877887 0.010530235 -0.052995972 -0.07751393 0.011848081 -0.066061154 0.07511933 -0.078811824
-0.02072544 0.056244105 0.04581831 -0.05984237 0.037159793 0.010405588 -0.06160749 0.06120233
0.06577765 -0.030436115 -0.02190288 0.06179312 0.054281708 -0.031105096 0.02964056 -0.020989427
0.062120542 -0.03740726 -0.078924194 0.06978348 0.009680836 0.05687423 0.0052713407 0.06227718
0.080454685 0.030434249 -0.059674576 -0.043891426 0.057501283 -0.074975885 -0.012492725 0.05709833
0.06895339 -0.028628275 -0.008655369 0.023186874 -0.06458118 0.062929325 -0.07915126 -0.034294456
-0.019114733 0.072486065 -0.03972296 -0.0032305496 0.037150342 0.06837589 0.075913794 -0.012237113
-0.0069733886 -0.078306116 0.031804245 -0.03099131 -0.045029044 0.022177078 -0.045780275 0.08163101

conv2.conv.0.bias f4 [32]
00000000: abb9 3a3c 9397 f13c 34a4 9e3d d214 423c
00000010: 1793 a83d 3cbb 143d b2f1 ec3c 3da1 5d3c
00000020: bf2d a4bd e1b1 9fbd 78a5 3a3d 9ea2 343d
00000030: 2b55 a1bd 8a7f 98bd 079e 8abd 3e4d 85bd
00000040: 74d9 ba3c 4aa5 2d3d c6ac 453d 9b95 8b3d
00000050: 0b7e f0bc 6dc9 6abd f6f7 66bb d145 063d
00000060: d871 0c3c 8b08 70bd f03f 99bc f771 6e3d
00000070: 2f24 413d 1c7a 07bc 4fc2 94bd 7412 7dbd
0.011396806 0.029491222 0.07746163 0.011845784 0.0823118 0.036311373 0.028923843 0.013527212
-0.08016538 -0.077975996 0.04556796 0.044100396 -0.078775726 -0.07446201 -0.067684226 -0.065088734
0.022808768 0.04239396 0.048260473 0.06815644 -0.029356977 -0.057321 -0.003524301 0.032781426
0.008572064 -0.058601897 -0.018707246 0.058214154 0.047153648 -0.008268859 -0.07263624 -0.061785176

conv2.conv.2.weight f4 [32, 32, 3, 3]
00000000: 8055 30bd 3c76 433d 9372 63bd 20b5 7c3c
00000010: 4f34 e7ba 711e 3ebd 0536 de3c 7bba 2bbd
00000020: 521a e43b 8773 af3c c28e b33c 1c86 0fbd
00000030: 69fd 44bb d989 5a3d 1f0a 563c 44c8 693d
00000040: f257 a93c 873a a53c ba7a 3cbc c6a7 a53b
00000050: 2297 42bd 7eab c5bb e4d0 c33c 8214 9a3c
00000060: d5e4 3cbc 0436 643d 037b d93c 756f 1cbd
00000070: b338 b33c aed7 b3bc 3faa 08bd 3900 4a3c
00000080: 3ac4 48bd 6243 8bbc 3b9d 413d 3880 de3b
00000090: 104e 82bc c97e 2e3d 84f5 81bc ec36 dd3c
000000a0: 47fa 103d abb6 13bd f0b8 34bd 7faf 3dbc
000000b0: dd2b 28bd c93b 3abc 4f4b 5dbc d967 4bbd
000000c0: b8e0 00bd 8f9d 123d a65c 293d be04 58bd
000000d0: d089 b03c a6db 34bd 9cfa 79bc 6bab 943b
000000e0: bbd2 5d3d 9f18 e1bc 44a5 433d 8ceb 5abd
000000f0: 4d7a 5fbc 6823 63bc 9d67 92bc 1f91 b7bb
00000100: ec58 0c3c 9a40 b63c aa4e 8c3a f6f3 6b3c
00000110: c5d7 63bd 660a 43bc 2291 093d f648 f33c
00000120: bf89 66bd 35a2 3bbd ab53 443d 242c 003c
00000130: 311d 88bc 5072 c83c 2097 303d a93f 1b3d
00000140: 27c8 d6ba 8f44 dd3c c663 c9bc 5431 1c3d
00000150: 6707 04bd 2cef e23c 56f9 b9bc 6a4e 033d
00000160: b49c 063c 390a 773c f33c 3b3d eb7f 45bd
00000170: 184a 283d ad29 1f3d 85f4 e8bc 4de9 6e3d
00000180: 9c52 6ebc 5ad0 babc ec7e 53bd 5eca 19bb
00000190: 07e1 e43c eacb 38bb f111 1b3d e6b5 08bd
000001a0: 9cce 6b3d e309 56bd 23f4 1ebb 24bd 17bd
000001b0: 3e05 ddbc 2986 24bd 5fa3 32bd 6a2d 2c3d
000001c0: 657d 55bd eaaa 40bd 86b8 503d 5388 3fbd
000001d0: fbf6 87bb 4a9b 173d a298 2b3d dd6c 3c3d
000001e0: a293 25bc 62e5 903c 5706 123d e8ab 4bbd
000001f0: a079 883c cf20 463d 791d f63c 0547 743c
00000200: 8955 8a3b ee7f 08bd 648f b6bb 6253 973b
00000210: c8e5 32bd 7499 213d 2a64 143c c1cd cebc
00000220: 278d 0b3d aea8 b13b 9d68 4cbd d32f 3cbc
00000230: e1fc b2bb 4a55 39bd 3b06 213c c10a 42bd
00000240: 8e9a 0c3d 58a4 013c 83ad 84bc bc88 c6bc
00000250: c1fb fcbc 11ff 8ab9 1a63 6d3b 3579 89bb
00000260: 8bfc 173b 6ac4 673c 9d4f 663d 4dd3 82bc
00000270: c46c 24bd 4078 36bc 497b a23c 2638 40bc
00000280: 6253 533d 5a78 993c bca9 6a3d c802 703c
00000290: c3fd 5a3d 753e 3b3d 99a0 2a3a 28d2 65bd
000002a0: 6a7c 4fbd f079 683d ab91 383d ba8a 43bd
000002b0: 4c70 993c 9606 393d 7cb6 fd3c c8b1 ccbb
000002c0: 99ca 6b3d ff01 473c f3c3 01bd 69e4 fc3b
000002d0: c8a8 6ebd 2588 bcbc b58c f83c ed67 55bd
000002e0: 3a8b 31bd 369d 5ebc 7272 4b3b 1a32 c1bc
000002f0: feb8 41bd 0987 153d 7518 87bc c188 09bd
00000300: adbc b0ba b928 d3bc 34a8 4d3d a33d 523d
00000310: 69e4 78bc 5c49 6cbd a800 ef3c b19e f13c
00000320: 6d73 c13b bc2d f83b 0cde 0e3c 4f97 45bd
00000330: 2f8c 103d 55c0 6a3d 7e64 00bd dcdb e4bb
00000340: 4a44 6ebd fe66 2dbd 4cc8 f1bc 2aa2 cc3b
00000350: 4609 193d 2a71 533d 65c8 033d 1814 433d
00000360: f42a 61bd 9bf6 473d 8999 d73c b83b d43c
00000370: 92e4 213d 999e b5bc 607d 213d f726 71bd
00000380: eacc 683d 44f4 20bd 22ee 603d beaa 4bbd
00000390: d1bd 523d 6fd2 61bd 17e7 4c3d 730b 99bc
000003a0: 5ae1 dabb 6eed c43c 02c4 2abd 0514 653b
000003b0: ad7d 673d 511d dfbc 85a6 2f3d 6b67 21bd
000003c0: a585 703d b38e 593d 74eb b53c c29d fa3c
000003d0: 9d7a 1dbc 095b 003d 4e6c 66bd 945d d13c
000003e0: bc8b 10bc b228 63bc 7b5b a5bc ec40 e439
000003f0: c273 07bd 8d6a 2cbd 7feb 6c3c 69e5 abbc
-0.04305029 0.04772018 -0.05552919 0.015424043 -0.001763949 -0.04641575 0.027125368 -0.04192589
0.0069611454 0.021417392 0.021918658 -0.035040006 -0.003005827 0.053354118 0.0130639365 0.057075754
0.020671818 0.02016951 -0.01150387 0.0050554005 -0.047507413 -0.0060324064 0.023903318 0.018808607
-0.011529167 0.055715576 0.026547914 -0.03819223 0.021877622 -0.02195343 -0.033365484 0.012329155
-0.04901526 -0.016999904 0.047269087 0.006790187 -0.015906364 0.04260138 -0.015864141 0.027003728
0.035394933 -0.036062878 -0.044121683 -0.011577486 -0.041057456 -0.011366793 -0.0135067245 -0.049659584
-0.03146431 0.03579479 0.041348122 -0.052738898 0.02155009 -0.044154786 -0.015257504 0.004537036
0.054156046 -0.02747756 0.04776503 -0.05344729 -0.013639999 -0.013863422 -0.017871672 -0.0056020166
0.0085661225 0.022247601 0.0010704596 0.014401427 -0.055625696 -0.011904335 0.033585675 0.029697876
-0.05628371 -0.04580899 0.047931354 0.007823024 -0.016615482 0.024468571 0.043112874 0.037902508
-0.0016386554 0.02701023 -0.024583708 0.03813298 -0.032233622 0.027701937 -0.0227019 0.032057203
0.008216072 0.015078121 0.045712423 -0.048217695 0.041086286 0.038858104 -0.028436908 0.05832796
-0.014546063 -0.022804428 -0.051634714 -0.0023466568 0.027939333 -0.0028197714 0.037858907 -0.033376597
0.057570085 -0.052255522 -0.0024254404 -0.037045613 -0.026980039 -0.040167008 -0.043612834 0.042035498
-0.05212154 -0.047037996 0.050957225 -0.04676087 -0.0041493154 0.03701333 0.04189361 0.046002258
-0.010105999 0.017687503 0.035650577 -0.04972449 0.016659558 0.048371132 0.03004335 0.0149095105
0.0042216224 -0.03332513 -0.0055712927 0.0046180943 -0.043676168 0.039452985 0.009057084 -0.025244595
0.03407016 0.0054217195 -0.049904454 -0.011486012 -0.0054622744 -0.045247354 0.009828146 -0.047373537
0.034327082 0.007912718 -0.016196018 -0.024235122 -0.030881764 -0.0002651145 0.00362224 -0.004195357
0.0023191299 0.01414595 0.05622827 -0.015969897 -0.04014279 -0.011137068 0.019834178 -0.011732137
0.051593192 0.018734146 0.057290778 0.014649101 0.053464662 0.04571386 0.0006508916 -0.056108624
-0.05065576 0.056756914 0.045060795 -0.04773972 0.018730305 0.045172296 0.030970804 -0.006246779
0.05756626 0.012146472 -0.031681012 0.0077176583 -0.05826643 -0.023014138 0.030340532 -0.052101064
-0.043345667 -0.013587287 0.0031043557 -0.02358346 -0.047295563 0.036505733 -0.016491154 -0.033577684
-0.0013483964 -0.025776254 0.05020924 0.051328313 -0.015191176 -0.05768715 0.029175118 0.029494615
0.0059036524 0.0075738113 0.008719932 -0.048240002 0.03528994 0.05731233 -0.031345837 -0.006984217
-0.058170594 -0.04233455 -0.029514454 0.0062449174 0.03736236 0.051621594 0.032173533 0.047626585
-0.054972604 0.048819166 0.026318328 0.025907382 0.039524622 -0.022170352 0.039426208 -0.05887505
0.056836046 -0.03929545 0.0549146 -0.04972338 0.051450554 -0.055132326 0.050025072 -0.018682217
-0.006679696 0.024038997 -0.041690834 0.003495456 0.05651634 -0.027235659 0.042883415 -0.039405268
0.058721203 0.053114604 0.022207 0.030592803 -0.009611753 0.031336818 -0.05625563 0.025557317
-0.008822378 -0.013864683 -0.020185223 0.0004353592 -0.03306938 -0.042093802 0.0144604435 -0.020983415

conv2.conv.2.bias f4 [32]
00000000: 650a afbc 6fb7 da3c 54a7 203d f435 003d
00000010: e0d9 95bc 7bb2 28bc a7a9 303d d443 333c
00000020: bb11 e73c 950a 0f3d c29f 6c3d bfb5 4c39
00000030: b108 dabc 55ef 01bd e9a5 2bbc b999 82bc
00000040: c130 4d3d 2848 73bc 627f 75bc bca0 4ebd
00000050: 65b0 553d d57c 5ebc 46fc 4dbd c817 3e3d
00000060: 568d 40bb 9d1b 0c3d d525 a7bc b977 21bd
00000070: 379e 5cbd 0b5e cf3c 0a7f 8ebc aaa8 d03c
-0.021367261 0.026698796 0.039222077 0.031301454 -0.018292367 -0.010296459 0.043130543 0.010941464
0.028206697 0.0349222 0.057769544 0.00019522662 -0.026615473 -0.031722385 -0.010476568 -0.015942441
0.050095323 -0.014848746 -0.014983984 -0.050446257 0.052170176 -0.013579567 -0.050289415 0.0464094
-0.0029381118 0.03420602 -0.020403782 -0.039420817 -0.053861823 0.025313398 -0.017394561 0.02547105

embedder2.conv.weight f4 [32, 34, 3, 3]
00000000: 38b6 04bd 83d5 013d 6660 023d a2b1 f13c
00000010: 6b75 1bbd 3b6f cabc 3a1d 523b 2922 303d
00000020: 9e8d 8f3c fc39 e1bc 805c bdbc 5a1a 2cbd
00000030: aaf5 183d 986a 233d 25f7 00bd 1f6d f23c
00000040: f8d9 513c d14e 49bc 26ea 1cbd 7f86 013d
00000050: e900 d8bb 9fd9 55bc 2775 2fbd f720 303c
00000060: 9375 4dbd d509 883c 80d7 48bc 715b 02bc
00000070: aa51 2bbc 2ce2 053d 3d2e b23a d5f3 edbc
00000080: 2d65 65bd f3d1 09bc 30a7 2a3d 66b7 64bc
00000090: e125 b13c 9f51 3f3d 67a3 a63c e81c 3f3d
000000a0: 88ee 57bd b8fb 163d dd2b b9bc c6f4 e8bc
000000b0: a5b4 c6ba c040 a63b 6679 d03c 69f5 c53b
000000c0: 33e4 bf3c 714f 10bd e75a 18bd 18ed 1f3d
000000d0: b847 2c3d ba61 303d dd9d 51bd cf43 9b3c
000000e0: 6e4a 4a3d f6d9 7bbc c4a8 6b3c 5c02 673d
000000f0: 0244 b9bb 3a86 823c 22c6 3dbd f994 04ba
00000100: e223 0ebd f543 e4bc d838 3f3d 84f8 46bd
00000110: 0e7d f63c 157b db3c d150 a4bc 5f78 393d
00000120: c652 f1bc 2566 683b 8f1f 293d f5bf 143d
00000130: d9a6 333c 9625 443d 03ee 503d 480e af3c
00000140: baa0 36bc 269b 33bd 2d74 bcbb 2f26 1fbd
00000150: 003e 52bd 9f59 313d f82a 963c dcc2 d53c
00000160: 30e8 593d 7eb4 843b 1f48 4f3d fcc6 153d
00000170: 518a e1bc 95fb 5ebd 1fcf e4bc 7795 67bd
00000180: 0f1a 023d b2b2 203b 1d3b 50bd e00f dcbc
00000190: 0585 04bc e700 d13c 10b7 54bd bc28 8b38
000001a0: c8a8 43bd 93ee 3b3d b44a 203d 2f54 80bb
000001b0: e91b fd3c df98 22bd 8dee 66bd 9475 f7bc
000001c0: 1063 e9bc 8ad0 4d3c e6fa 203d e247 1a3d
000001d0: 343c 4fbc b12d bc3c b37b 25bd 1607 403d
000001e0: 4c2f 783c 1c09 7c3a a2b9 8fbc aa21 c9bc
000001f0: 1a7f 94bc 7467 fcbb bd30 67bd a25a 5a3d
00000200: 2064 b03a 08df 58bd 804f 4a3d 24ea 0ebc
00000210: 063a ad3b 3cc9 fb3c 1df8 013d 0a5b 40bd
00000220: 3534 23bd 5245 3abd 35ec f6bc 3beb 0bbd
00000230: 0c41 a93c 1397 35bb f598 8e3c 579f 07bd
00000240: 22d7 40bd 5be5 a13c d0d3 79bc 6a28 473d
00000250: 371d 053d f66e 623d 6faf d3bc 9570 dcbb
00000260: a53e 283c 7938 bcba df26 523d 6647 f6bb
00000270: 1316 00bb 05f5 4f3d b729 0ebd a200 5dbd
00000280: f2f9 343d 341c 4abd 3a9d 8a3c f986 0d3d
00000290: ac57 b4bc bb4b 13bd d7df 45bd bef9 f6bc
000002a0: ed9a a73c f439 843a 04c8 7b3a 1aec 163d
000002b0: 7eb9 4bbd ca01 12bd ad36 e3bc 5054 b63c
000002c0: a94b 31bd 46c0 ec3c 387e 603d 3b38 83bc
000002d0: 14d8 3dbd 5ba9 b0bc f71a 7dbc dc8b 64bd
000002e0: fccd afbc 56a1 253c 9c04 52bc f209 c53c
000002f0: 9273 123a 093e f63c d419 63bd a16a dd3b
00000300: 5e5f 2ebc 1bea 463c da3b 57bd 10ab e53c
00000310: 55fe 983b cd07 2abc 67e5 3b3d df7b 103c
00000320: f361 153d 48aa 533d 9314 d93b 695e 643c
00000330: c2ca 483d af04 9d3c 6f15 0cbd ac78 143d
00000340: 0893 323d 784a 92bc 5b93 3bbd b959 383d
00000350: 8498 1d3d 6931 e23c aac9 29bc 365e 99bc
00000360: d560 e0bc 1821 033d 6c9b c43b c5cb a5bc
00000370: 46c9 91bc e538 d93b 31e3 8db9 edfa 68bd
00000380: 4a2e 2bbb da02 963c 2b97 24bc 024a 4f3c
00000390: b3dc aebc cf78 0d3d 4659 233d 9878 5f3d
000003a0: 9666 57bd dc14 a03c 9348 343b b882 5e3d
000003b0: 1a17 443d 642f 4f3d 2d9d e8bb e46f 543d
000003c0: 2b2d aebb e030 55bd a5ea 563c be19 eebc
000003d0: 75a1 86bc d9a1 94bc a6af ecbb 1dde 2ebd
000003e0: f3eb adbb 84bc 01bd 35ca 1dbd 7dd4 43bd
000003f0: 417c 58bc a35f c0bc 358c 0d3d 9c12 2e3d
-0.03240034 0.03169776 0.031830214 0.029503647 -0.037953775 -0.024711242 0.0032060877 0.043001328
0.017523583 -0.02749347 -0.023115396 -0.04201732 0.03734366 0.039896578 -0.031485695 0.029593049
0.012808315 -0.012286858 -0.03830924 0.031622406 -0.0065919054 -0.013052373 -0.042836335 0.010750047
-0.050160956 0.01660625 -0.01225841 -0.007956372 -0.010456482 0.032686397 0.0013594102 -0.029046932
-0.056004692 -0.008411872 0.04166335 -0.013959741 0.021624507 0.0467087 0.020341588 0.046658427
-0.052717716 0.03686115 -0.022603923 -0.02843703 -0.0015160037 0.005073637 0.025448512 0.006041218
0.023424244 -0.03523201 -0.037196066 0.03904447 0.042060584 0.04306195 -0.05117594 0.018953232
0.049387388 -0.01537179 0.014383499 0.056398734 -0.005653859 0.015933145 -0.046331532 -0.0005057599
-0.03470219 -0.027864436 0.04668507 -0.048576847 0.030088928 0.026792089 -0.020058068 0.04528081
-0.029458415 0.0035461274 0.041289862 0.036315877 0.010965073 0.047887407 0.051008236 0.021369115
-0.011146719 -0.043849133 -0.005751154 -0.038854774 -0.05132866 0.04329836 0.018331036 0.026093893
0.053199947 0.0040498367 0.05060589 0.03656672 -0.027531775 -0.054439146 -0.027930794 -0.056539025
0.031763133 0.0024520573 -0.050837625 -0.026863039 -0.008088355 0.025513126 -0.051932395 6.635624e-05
-0.047768384 0.04588182 0.039133742 -0.0039162855 0.030897098 -0.03969657 -0.056379844 -0.030207433
-0.02848962 0.012561927 0.039301775 0.03766621 -0.012648631 0.022971006 -0.040401172 0.046881758
0.015147995 0.00096143945 -0.017544571 -0.024552185 -0.018127013 -0.0077027623 -0.056442965 0.05330909
0.0013457574 -0.052947074 0.049392223 -0.008722816 0.005286458 0.030735604 0.03173076 -0.04696182
-0.03984471 -0.045476265 -0.03014193 -0.03415988 0.0206609 -0.0027708455 0.01740692 -0.033110943
-0.047080167 0.019762686 -0.015248254 0.048622526 0.032498565 0.0552816 -0.02584049 -0.006727288
0.010268842 -0.0014360092 0.0513066 -0.0075158356 -0.0019544407 0.05077078 -0.03470775 -0.05395568
0.04418368 -0.049343303 0.016920675 0.034552548 -0.022014461 -0.035960894 -0.048309173 -0.030148383
0.020459617 0.0010088072 0.0009604695 0.036846258 -0.049737446 -0.035646237 -0.027736032 0.022257
-0.043285046 0.028900277 0.05480787 -0.016018024 -0.046348646 -0.02156513 -0.015448323 -0.055797443
-0.021460526 0.010109266 -0.012818482 0.024052594 0.00055866793 0.030058878 -0.055444553 0.006757096
-0.0106428545 0.012140776 -0.052547313 0.02803567 0.0046689906 -0.010377836 0.045873072 0.008818596
0.036470365 0.051676065 0.006624767 0.013938525 0.04902149 0.019167272 -0.03420013 0.036247894
0.04359725 -0.017857775 -0.045794826 0.04500744 0.03847553 0.027611451 -0.010363022 -0.018721681
-0.027389923 0.032013983 0.005999973 -0.020238766 -0.01779617 0.006629097 -0.00027062887 -0.056879926
-0.002612012 0.018311907 -0.010045807 0.012651922 -0.021345472 0.03453904 0.03988006 0.054558367
-0.052588068 0.019541197 0.0027509078 0.054323882 0.047873594 0.050582305 -0.007098815 0.05186452
-0.005315443 -0.052048564 0.013117467 -0.02906501 -0.01643441 -0.018143581 -0.0072230874 -0.042692292
-0.0053076684 -0.031673923 -0.038522918 -0.047810066 -0.013213218 -0.023483103 0.03455754 0.042498216

embedder2.conv.bias f4 [32]
00000000: 2c9b 4f3d 501a 053d 3c11 ad3c 2faa 9ebc
00000010: c758 e1bb 238b 00bb 8d31 753c 1f9d 0dbd
00000020: c37a d03c b8b4 0a3b dff8 283d f953 e2bc
00000030: 1872 52bd 1c64 1c3d 03ad abbc 3abb 353d
00000040: 8705 ef3c f1b0 d1bc 8fd7 35bd 94f3 b2bb
00000050: 924f fabc 21f6 4ebd 3398 3d3c 8123 ee3c
00000060: 292f 62bd d1ea 383d 438e faba 077d 45bd
00000070: 590b 5d3d a0a3 9dbc 13e7 e13c 9aac e43c
0.050685093 0.032495797 0.021126382 -0.01936826 -0.006877038 -0.0019614182 0.014965427 -0.03457367
0.025449162 0.0021164846 0.041252967 -0.027627932 -0.05137834 0.03818141 -0.020956522 0.044368006
0.02917744 -0.025597068 -0.044395026 -0.0054611657 -0.03055552 -0.050527696 0.011571932 0.029069664
-0.055220757 0.045145813 -0.0019115884 -0.04821494 0.0539659 -0.019243062 0.027576005 0.027914334

conv3.conv.0.weight f4 [64, 32, 3, 3]
00000000: 3680 2cbd 862c fd3c 9934 1cbc 450d 103c
00000010: f1fa 423d 1082 92bc 3896 2cbd 0faf 383d
00000020: 24d2 483c 653d 1a3d 9218 f23c caa2 5f3d
00000030: 6b7e 07bc 7f0c bdbc 9e24 563d 9f3a 22bc
00000040: 4dd0 843c d0f9 d1b9 3b9d 0c3d 8588 453d
00000050: 9b6a 433d 3678 a9bc 79eb 52bc 3569 523d
00000060: db11 47bd bedd 3b3d 5ea1 193d 5c46 933c
00000070: a830 563d 9e60 173b 72a3 a0bb 27a7 2bbc
00000080: af9b 1a3c ac06 54bd ffa4 1b3d 00b1 063c
00000090: 22a4 4f3c 6893 3dbd 239c 093c 8058 d53c
000000a0: e49e 06bd 3156 6fbd 0da7 37bd fc08 26bd
000000b0: 40e6 563c 092c ee3c c3b5 49bd bec1 4ebd
000000c0: 6fbb 68bc e3ec 643d 0e4c dd3c 72a5 1fbd
000000d0: 2d0b cebc b28a 3cbd e3d5 08bd 8dc4 87bc
000000e0: 26a5 cfbc a2bd fabb d246 313c 4446 793c
000000f0: c1d2 08bd 1761 dd3c 4e01 dbbc 6137 4b3d
00000100: 025c 133d 69bd 813c ebc5 2ebd 47c9 21bd
00000110: 6907 39bd abac 4ebd 4ebd 68bd 3393 44bc
00000120: ed0e 283d a57f 49bd c317 a03c ea39 573d
00000130: 702f 17bd 5e0c 583d 5d1e f5bc d73e 633d
00000140: ccb0 0dbd ebd6 353d 105a 36bd 90f7 af3c
00000150: a54b e5bc c8f7 4c3d 2a37 593d a98a 5f3d
00000160: 1b83 5cbc b314 a7bc ad53 19bd fd96 4d3d
00000170: f558 843b 932d 69bb f1f3 363c 9b58 cb3c
00000180: 53d3 58bd 3158 353d ac13 19bd 7387 1d3c
00000190: b490 e0bb 6a95 2ebd d327 ce3b e01d d03c
000001a0: f758 8e3b 60cc 8d3a 58da 16bc 35b8 303d
000001b0: fd0e 43bd 6978 033d 09b7 113d b068 3fbd
000001c0: 2dc1 103a 992d ee3c 7d28 01bc a381 cfba
000001d0: 0c6e 363d 7216 f83c 4603 443d 288a be3c
000001e0: 1020 2bbc 0673 6d3b 00dd 07bd a95b 38ba
000001f0: 0f75 173d 60e9 f33c 9484 10bd 13f7 2dbc
00000200: d3b9 f23a 5f39 07bb 9965 44bd f69f 6d3d
00000210: 476e 113d 09b9 6a3d 727e 29bd 064d aabc
00000220: 8904 25bd b56f 12bb 1627 593d 9a36 0a3d
00000230: 0fc9 80bc 5a0a 2bbd 1c5f c53c 6a9c 373d
00000240: 6be6 80bc ed7c e8bc f857 23bc 43d4 c93c
00000250: d797 483d f1d6 ac3c 71d0 583d 70d9 b63c
00000260: 03c7 15bd d2f4 84ba 6736 c3bc c476 44bc
00000270: f2af 4ebd c599 02bd be22 b83b 80c9 2fbd
00000280: 09b3 64bd d34a 063c 740b db3c bbaf d83c
00000290: dee7 2a3b 140c b4bc 3f02 42bd 8b07 cf3c
000002a0: cffa 313d 9ec3 dcba 52b3 1bbd 6c78 04bd
000002b0: 56c3 eabc f878 48bc 2169 ebbc 846f f8bb
000002c0: d19b 763c 92ba 833b b3b5 13bd ed8f da38
000002d0: e080 033d 60b6 de3b 6f6d c6bc 2aea e9bb
000002e0: c098 5c3d 264b cc3b 2463 9f3c 373e c4bc
000002f0: e624 64bb d616 71bd 7566 99bc c470 c9bc
00000300: f2b2 02bd a046 01bd 2897 a9bb 4edb 1c3d
00000310: 0cea e53b 3831 27bd 41a3 193d 1bff 9abb
00000320: da33 4f3d 7db8 463d dfc5 423d ed7b 073d
00000330: 611d 6fbd d813 463c f461 333d c0c7 4a3d
00000340: aeda 3cbd edf7 af3b 5e50 1cbd b1ba d0bc
00000350: 9bdf 64bc d1b3 b7bc ba66 0ebd 7aa7 563c
00000360: 27c7 493c 89ef 6abd 5eb4 0dbd ebc5 59bc
00000370: d4d1 20bd bd3a 3bbd 9440 29bd 4e52 66bc
00000380: 1726 39bd 71f7 343d d274 35bd 437f 02bc
00000390: 478c 25bd b737 e6bc 685b 833c 38cd 563c
000003a0: 1a5f e4bc c7bc f03b 8ecd f03c 2894 8dbc
000003b0: 9a0f a1ba 746c 5ebd bce0 88bc c07f b53c
000003c0: e6ce 523d b0ca 153d 4db1 2ebd ea31 283c
000003d0: 6bc2 54bc e490 efbc 9678 3e3b 489b 383d
000003e0: ae5c 3e3c b72a 543d 8ace 953c ae9d 083d
000003f0: ab7a 043c b084 553d d131 9dbc f036 59bd
-0.04211446 0.03090502 -0.009534025 0.008792226 0.047602598 -0.017884284 -0.042135447 0.045088824
0.012257133 0.037656207 0.029552732 0.054598607 -0.0082698865 -0.023077248 0.052281015 -0.009901672
0.016212607 -0.0004004971 0.034329634 0.0482259 0.04770909 -0.020687204 -0.012873524 0.051369864
-0.048601013 0.045865767 0.037507407 0.017977886 0.052292496 0.002309836 -0.0049022967 -0.010476864
0.009436532 -0.051764175 0.03799915 0.008220911 0.01267341 -0.046283156 0.008399042 0.026043177
-0.032866374 -0.058431808 -0.044837046 -0.040535912 0.013116419 0.029073732 -0.049245607 -0.050477736
-0.014204844 0.055889975 0.027013805 -0.03897614 -0.025151813 -0.046030708 -0.033407103 -0.016573215
-0.025347304 -0.0076520005 0.010820108 0.015214507 -0.033404116 0.027023835 -0.02673402 0.04961336
0.035976417 0.015837388 -0.042669218 -0.039498594 -0.045173083 -0.050457638 -0.05682116 -0.011997986
0.04102986 -0.049193997 0.01954258 0.052545466 -0.036910474 0.05274617 -0.029921705 0.05547985
-0.034592435 0.044394415 -0.044519484 0.021480352 -0.027990172 0.05004099 0.053031124 0.054575596
-0.013458992 -0.020395612 -0.037433315 0.05019282 0.004038925 -0.0035580143 0.011166559 0.024822524
-0.05293591 0.04427356 -0.037372276 0.009614813 -0.0068531875 -0.04262296 0.0062913685 0.02540487
0.0043441015 0.0010818355 -0.009207331 0.043144424 -0.047621716 0.032097254 0.035574947 -0.046730697
0.00055219495 0.029074477 -0.007883188 -0.0015831481 0.044538543 0.03028414 0.047854684 0.023259237
-0.010444656 0.003623189 -0.033169746 -0.00070327014 0.03697687 0.029774368 -0.035282686 -0.010617989
0.0018518515 -0.002063356 -0.047948454 0.05801388 0.03550556 0.05730537 -0.041380353 -0.02078868
-0.04028753 -0.0022344415 0.05301579 0.03374348 -0.015720872 -0.04175792 0.024093203 0.044826902
-0.015734872 -0.028379882 -0.009969704 0.024637347 0.04897293 0.021098586 0.05293316 0.02232048
-0.036566745 -0.0010143763 -0.023829652 -0.011991207 -0.050460763 -0.031884927 0.005619376 -0.042916775
-0.055834804 0.00819655 0.02673886 0.026450982 0.0026078145 -0.021978416 -0.047365423 0.025272151
0.04345208 -0.0016842966 -0.03801281 -0.032341406 -0.028657597 -0.012235872 -0.028736653 -0.007581653
0.015051798 0.0040200436 -0.036061954 0.00010421858 0.032105327 0.006796643 -0.024222104 -0.0071385102
0.05385661 0.0062345443 0.019456454 -0.023955448 -0.0034812032 -0.05885967 -0.018725613 -0.024589904
-0.031908937 -0.031561494 -0.00517549 0.038295083 0.007016426 -0.040818423 0.037509207 -0.004730118
0.05058656 0.048515785 0.047551986 0.03307717 -0.058377627 0.012089692 0.043794587 0.049506903
-0.046106987 0.005370131 -0.03816258 -0.025479646 -0.013969327 -0.02242461 -0.034765936 0.013101453
0.012315548 -0.057357345 -0.03459584 -0.013291816 -0.039262608 -0.045710314 -0.041321352 -0.014057709
-0.04520234 0.04418129 -0.04430086 -0.007964912 -0.040416982 -0.028102739 0.016034797 0.013110451
-0.02787738 0.0073467228 0.029394891 -0.01728256 -0.0012287975 -0.054302648 -0.016708724 0.022155643
0.051466845 0.03657025 -0.042649556 0.010265807 -0.012985806 -0.029243894 0.0029063574 0.045069963
0.011618776 0.05179855 0.018286962 0.0333535 0.008085887 0.052128494 -0.019188793 -0.053030908

conv3.conv.0.bias f4 [64]
00000000: fa77 123d 0ecb 5bbd d490 1f3d b832 70bd
00000010: 7928 abbc e38e 96bc f8f2 e93c 0c29 023d
00000020: b59e 4c3d 4dcc 603d 2ce3 033b 8ce8 303d
00000030: 559f 67bd e603 f93c 55c3 663d 2b0c d7bc
00000040: a85a d9bb 592f 043d 8058 e5bc aaee 44bd
00000050: fa5d 29bd 6c02 623c c999 623d 6135 68bb
00000060: fe84 d23b 30d7 8dbb 1b43 6b3c 125d d6bc
00000070: c91c ae3b 843a 26bd 7f5c f5bc 11c5 103c
00000080: e311 37bd c4fa 50bd 2632 5f3d 6808 7cbb
00000090: 4136 15bd be61 3dbd c185 103d 691a eebb
000000a0: a299 53bd 986e 683d b399 25bd 5489 603d
000000b0: 2551 c8bc 2d51 243c dd76 4fbd 9b07 bd3c
000000c0: 4687 a4bc 1064 fdbc 2cb9 263b a18e 5b3d
000000d0: 490b 66bd 83bc 263c 8666 5cbd 5f55 bcbb
000000e0: 57bd 3c3b a93d edbb 202b 31bb a776 52bd
000000f0: 830c e8bb cc6e 0cbd 112d fa3c b721 ff3b
0.03575895 -0.053660445 0.03895648 -0.05864212 -0.020893322 -0.01837868 0.02855824 0.031777427
0.049956042 0.054882336 0.0020124419 0.043190524 -0.056548435 0.030397367 0.056338627 -0.02625092
-0.0066331215 0.032271717 -0.027996302 -0.04807917 -0.04134939 0.013794523 0.055322442 -0.0035432207
0.0064245453 -0.004328631 0.014359261 -0.026167426 0.00531349 -0.04058315 -0.029951332 0.008836047
-0.044694792 -0.0510204 0.054491185 -0.003845716 -0.036428694 -0.046235792 0.035283808 -0.007266332
-0.051660188 0.056746095 -0.040429782 0.054818466 -0.024452755 0.010029119 -0.050650466 0.023074916
-0.020084035 -0.030931503 0.002543996 0.05360282 -0.056163106 0.010176781 -0.05380871 -0.0057474817
0.0028799379 -0.0072400165 -0.002703376 -0.051382687 -0.0070815696 -0.03428535 0.030539067 0.0077860015
